Malaria-Ditection-App/app/src/main/assets/tf_lite_model.tflite (tflite, 104380 bytes, 8 tensors)

sequential/conv2d/Conv2D/ReadVariableOp f4 [4, 3, 3, 3]
00000000: 2465 713a cc2f ae3f 0610 29bf 4f34 613e
00000010: 7eaa 683f ead3 2e3e 3726 20bd dd91 52bd
00000020: fdeb ff3d 6feb 39be 605f 633f d7a6 2cbe
00000030: dad1 e1b9 0942 f7be 68f6 09be bdbf b43e
00000040: 7d7a 9ebf 6d8c 0e3f df06 0dbe 399e 3abe
00000050: 843a a83e 2cd0 e13e d21e 7abf 25f6 a03e
00000060: c5ab 1c3f e547 c1bf b367 b43e 6291 23bf
00000070: bc78 803f a201 a0be 5a7c 883e e1d6 9fbf
00000080: 8742 113f 0a8c cabe 10a8 183f 83a6 023f
00000090: 1faf 073e 460f cb3d 3328 efbd b03c 853f
000000a0: f3b0 39c0 1646 ac3f e291 1a3f 73cc ecbf
000000b0: 357d 2d3f 1e03 4f3d cd45 e33f a888 8fbf
000000c0: 6330 a33d b6fc 413e ef7b 1dbe e187 fabd
000000d0: 309f 593f daa3 d1be 0a0c 833e a98c 2dbf
000000e0: 335e b13e 2b0e 16be fc7e 49bf bba0 103e
000000f0: 7ad2 8fbe 2ca7 2b3b 37f6 543e 7f48 a73d
00000100: 5bc8 82bf ee72 a93e fadb 663e b8bf 32bf
00000110: b451 27be 30eb 9e3c 5620 8d3e 6527 c1bd
00000120: 2942 843d 9cce 1ebe 5eac afbd 335a 2c3e
00000130: ad5d 6b3e b91c c5be fd30 833c 56cb 373f
00000140: c23a 5fbe 26a7 df3d 2321 893e afa9 f8bd
00000150: 8696 ccbe 8c89 76be 7907 44bf d5fe aebc
00000160: 9748 a33e f3fa 8ebe 4ab9 b93d a27a 90bd
00000170: 5560 23be 0727 d4be ace8 963e 3f69 d5be
00000180: bf49 0abe 751d 303e 7960 873e e062 b9bd
00000190: 7113 2d3e 6f93 c3be 89c8 83be 4967 cfbc
000001a0: 2dba f2bd 03bd 6e3e 3824 933e 3556 863d
0.00092084915 1.3608336 -0.66040075 0.2199261 0.9088515 0.17073026 -0.039098945 -0.051408637
0.12496183 -0.18156217 0.88817406 -0.1686052 -0.00043071696 -0.48292568 -0.13472903 0.35302535
-1.238113 0.5568302 -0.13772152 -0.1822442 0.32857144 0.44104135 -0.9770328 0.31437793
0.611996 -1.5100065 0.35235366 -0.6389371 1.0036845 -0.31251246 0.26657373 -1.2487451
0.5674214 -0.39559966 0.59631443 0.51035327 0.13250397 0.099150226 -0.11677589 1.0409145
-2.9014251 1.3458889 0.6037885 -1.8499893 0.67769176 0.050540082 1.7755677 -1.1213579
0.079682134 0.18944058 -0.15379308 -0.12232948 0.85008526 -0.4094532 0.25595123 -0.67792755
0.3464218 -0.14653842 -0.7870939 0.14123814 -0.28090268 0.0026192171 0.20797049 0.081681244
-1.0217394 0.33095497 0.22544852 -0.6982379 -0.16339761 0.019399256 0.27563733 -0.09431342
0.064579315 -0.15508503 -0.08577798 0.16831283 0.22984953 -0.38498476 0.01601457 0.7179464
-0.21799758 0.10920553 0.26783094 -0.121417396 -0.3995859 -0.24075907 -0.765739 -0.021361748
0.3189132 -0.27925834 0.09068544 -0.0705464 -0.15954717 -0.41436026 0.2947439 -0.4168186
-0.13504694 0.17198737 0.2644079 -0.09052062 0.16901948 -0.3819842 -0.25738934 -0.025317805
-0.118519165 0.2331429 0.2873857 0.065594114

sequential/conv2d/Conv2D_bias f4 [4]
00000000: b206 14bf 5e9c 0abf 978a 103f f568 823f
-0.57822716 -0.5414485 0.5646147 1.018828

sequential/conv2d_1/Conv2D/ReadVariableOp f4 [8, 3, 3, 4]
00000000: 00c6 2abf 8434 ee3d 2b7f 84bc d029 143e
00000010: 357e d6be 09a0 413b 5bf9 b9bd 5e17 b2bd
00000020: c535 563e 22c8 36be fed0 3dbe ed03 01bd
00000030: a4da 99be 7659 f83d bb80 3bbe e3ac 61bd
00000040: 4cc6 e33e 143f 1fbe 5430 94bc 70a6 4bbc
00000050: 452a 473d c785 1ebe 1e06 b7bd 72d5 b33d
00000060: 2515 2b3e 4763 82be 869a 0cbd 317a 87bd
00000070: ad5b 4cbd 2aad 433e 17d1 503d 06d2 bb3d
00000080: a4bc ddbc 8991 d3bd e79f 42be 3350 9c3c
00000090: 661b 963d d4ed 34be f4d0 053e 08e1 1ebc
000000a0: 88a3 25be 7c61 85be c7ea 1a3e eb99 93bd
000000b0: da22 233d e2ed 52be 53a3 1d3d 42a8 e93d
000000c0: 411c ff3d b869 ab3d 254e b13e eff2 073c
000000d0: 4544 38bd 653c 3ebe b84a 783e a85a 5ebd
000000e0: 63da 543e e308 4a3e 0e09 753d 0ca9 3fbe
000000f0: 99d0 66bc a45f fd3c 8953 79bd 3f4a ee3b
00000100: 04a9 43be ced8 f6bc c4c4 8bbd da9f e7bc
00000110: 89d2 dd3e b4df d03c d395 39bd 5045 1bbd
00000120: 8201 b93e d892 7e3e 9ddd a03e 3cd6 cc3d
00000130: 9ffe 283e 19db 7a3e bff1 253e 5b02 02be
00000140: f48b 7abe db83 2d3d e57d 833e 2fd6 94bc
00000150: f1e0 653f e2a7 163f 94df 8f3e b3f0 83be
00000160: 84fc 783d cb28 2d3f b608 a03e 2266 e1be
00000170: 1a60 03bf f827 b63d fcdc 9d3d 1ca4 7dbe
00000180: 379f 1c3f 5879 773f 3893 4a3e 7da2 a5be
00000190: 6d25 d2be f8b9 3a3f a47b 843e 3873 49bf
000001a0: 37d6 74bf f214 95be f9a0 633e d6e2 d3be
000001b0: b2b6 3c3e c260 633e 438f d63b 20ae 613e
000001c0: fb3f 0f3e 5723 ec3e 0b4d b53d 887c 00bd
000001d0: 62ea 15be 8ba5 123f 2963 3c3e ceae 22be
000001e0: 3cf2 943b ea2c 063e 771d 4fbc b472 b5bd
000001f0: 989f 49bd c831 233f 6cca 903e 6969 cbbe
00000200: c523 02be 2092 f23e 0103 0b3e 3b4c 1fbe
00000210: 1908 d6bc 723d 2dbd b7e9 083e d9df 13bd
00000220: 01c4 cdbd 1d79 f13e 75aa 1b3e 8553 3bbe
00000230: 7f88 4ebe bc5c bf3e 74aa a13e a3e5 693e
00000240: 8d70 363e eb5c 4ebf 1242 cfbe a75f 6c3d
00000250: ef0c 403e 7355 e43e f818 fcbd 2554 43bd
00000260: aa4d 063e 8dea bc3f 3e54 a83e c641 96be
00000270: 754c 023e bf71 8dbf 8f7b 79be eeaa b9bd
00000280: 2acb 5e3e a258 443d 531d 73be e6aa ccbe
00000290: 92c8 b5be 7df2 553f 0064 cf3e bf04 f1be
000002a0: b3e9 c8bd 4eee 8bbf 1a72 c8bd da12 6ebe
000002b0: f7a4 48be 08eb 07bf d776 31be c485 98be
000002c0: 2fa4 2dbf 80dd c2bd a37d 5e3e 5281 c2be
000002d0: 0999 6b3f 2738 983f 7c44 9d3d c2cb 53be
000002e0: 5810 8dbd 985b 3ebc 1048 453e 279c 5ebe
000002f0: 8986 6e3d 2d5a 81bf e24d b7be f1b6 c9bd
00000300: 6d12 81bd 68e8 4c3f 31a0 1f3f 0957 b6be
00000310: 8c71 8dbf 0a71 f9be 1eb6 9a3e dd1f 95be
00000320: 5800 e6bd 1b26 1bbf 375a d2be e742 29be
00000330: 8aaf 3bbf cdb8 013f 270f c63e 3461 e4be
00000340: 59cb 3dbf 22c0 02bf 5f28 be3b 360d 8dbe
00000350: d647 febc a03b 24bf a225 aabe 0e8e 47ba
00000360: 1afe b23e 50bb a53e 0f05 203e 24a3 3cbe
00000370: cecc bc3e 9a83 053f 8c71 803e fda0 86bd
00000380: 0961 b43e 420e 223e cf53 ae3e 13aa e0bd
00000390: 0add 03be c87d 823d 5c87 e73e 97ef dabd
000003a0: b2bb a8be 2078 42bd 1adb 333e b991 3fbe
000003b0: 1f3b 4bbc b610 32be 8cbe ba3d 3a38 2dbe
000003c0: d758 f1be 0aec 5fbe 28f6 3f3d e8f2 93be
000003d0: 3479 8dbe 0128 41be 0573 b83d 0ed5 0abe
000003e0: c5f9 a2be 9c03 403e 7962 98be 4b47 a0bd
000003f0: 8a98 83bd ad78 55bd 0648 21be 4067 94bd
-0.66708374 0.1163111 -0.01617392 0.14469075 -0.41893163 0.0029544851 -0.09080764 -0.08695863
0.20918949 -0.17849782 -0.18536755 -0.031497885 -0.30049622 0.12126438 -0.18310826 -0.05509652
0.44487226 -0.15551406 -0.01808945 -0.0124298185 0.048624296 -0.1548072 -0.08936714 0.08780946
0.16707285 -0.25466368 -0.034327053 -0.06615103 -0.049892116 0.19109026 0.050980654 0.09170918
-0.02706749 -0.10330493 -0.1900631 0.01908121 0.073294446 -0.17668849 0.1306799 -0.009697206
-0.16175663 -0.26050937 0.15128623 -0.07207092 0.03982816 -0.20598558 0.038485836 0.11409046
0.12456561 0.083697736 0.34629932 0.008297666 -0.044986982 -0.18577726 0.24247253 -0.054285675
0.20786433 0.19729953 0.05982309 -0.1871683 -0.0140878195 0.030929394 -0.06087068 0.0072720344
-0.19107443 -0.030132677 -0.068246394 -0.028274465 0.43324688 0.025497295 -0.0453089 -0.0379079
0.36133963 0.24860704 0.31419078 0.100017995 0.1650338 0.24497642 0.162055 -0.12696211
-0.2446745 0.042362075 0.25681987 -0.018168537 0.8979636 0.5884992 0.28100264 -0.25769576
0.060787693 0.6764037 0.31256646 -0.44023234 -0.51318514 0.08894342 0.07708165 -0.24769634
0.6118044 0.9666953 0.19782722 -0.3235053 -0.4104418 0.72940016 0.2587558 -0.78691435
-0.95639366 -0.29117543 0.22229375 -0.41384 0.18429068 0.22204879 0.00654784 0.2203908
0.1398925 0.46120712 0.088525854 -0.031368762 -0.14640191 0.5728385 0.18397202 -0.15886995
0.004545478 0.13103071 -0.012641302 -0.088597685 -0.049224466 0.63747835 0.28279436 -0.3972886
-0.12708957 0.4737711 0.13575365 -0.15556423 -0.026126908 -0.042294927 0.13370405 -0.03610215
-0.100471504 0.47162715 0.15201743 -0.18293579 -0.20169257 0.37375438 0.31575358 0.22841506
0.17816372 -0.8061053 -0.40480095 0.05770841 0.18754934 0.44596443 -0.1230945 -0.04768767
0.13115564 1.4759079 0.32876772 -0.29347056 0.12724479 -1.1050338 -0.2436354 -0.090658054
0.21757188 0.04793609 -0.23741655 -0.39974135 -0.35504586 0.8357313 0.4050598 -0.47073933
-0.098101996 -1.09321 -0.09787388 -0.23249379 -0.19594179 -0.53093004 -0.1733049 -0.29789555
-0.6782865 -0.09514904 0.21727614 -0.3798929 0.9203039 1.1892136 0.07679078 -0.20683196
-0.06887883 -0.011618517 0.19265771 -0.21739255 0.05823377 -1.0105644 -0.35801607 -0.098493464
-0.063023426 0.80042124 0.6235381 -0.35613278 -1.1050277 -0.48719054 0.3021707 -0.29125872
-0.11230534 -0.6060502 -0.41084453 -0.16529427 -0.73314726 0.5067261 0.38683435 -0.4460541
-0.7413841 -0.5107442 0.0058031525 -0.27549142 -0.031040113 -0.6415348 -0.33231837 -0.00076124154
0.3495949 0.3236947 0.1562693 -0.18421608 0.36875004 0.52153933 0.2508663 -0.06573675
0.35230282 0.15825751 0.34048316 -0.10969939 -0.12877288 0.06371647 0.45220459 -0.106902294
-0.329557 -0.04747784 0.1756405 -0.18707933 -0.012404232 -0.17389187 0.09118375 -0.1691598
-0.47138092 -0.21867386 0.046865612 -0.2889626 -0.27631533 -0.18862917 0.09006313 -0.13557836
-0.31831184 0.18751377 -0.2976263 -0.07826098 -0.06425579 -0.05211704 -0.15750131 -0.07246256

sequential/conv2d_1/Conv2D_bias f4 [8]
00000000: ccfe 0abe 710b 06bf 07dd 92be b992 ccbc
00000010: 116d 9cbd 300d 0bbd ad4a 7f3d db5f b7bd
-0.1357376 -0.5236121 -0.28684255 -0.024972307 -0.0763799 -0.033948123 0.062327076 -0.0895383

sequential/dense/MatMul/ReadVariableOp/transpose f4 [16, 1568]
00000000: 331d 8b3a 281a 36bc 41b7 56bc d8e1 0a3d
00000010: 9000 873c 1f1e 253d 084c 07bd c6e3 9ebc
00000020: 7d25 c8bb 9d33 3b3d b900 0d3d 8434 34bd
00000030: d003 833c 18a0 d53b f751 9abb 26b1 ee3b
00000040: d44d 62bd ffb1 453d 3cde 40bd 9e68 a43c
00000050: 3015 f93c adde c4bb cc50 02bd 32f1 58bd
00000060: 5160 a23c e2d7 b63c 081f 7fbd 9301 1e3c
00000070: c5a3 11bd 81a2 37bd 2172 2ebd 060f 343d
00000080: 2fdb 8cbc 8920 d1bc 13b2 54bc ec0a 663c
00000090: c74e af3c d802 b03b 5177 35bd eb5e 79bc
000000a0: 6915 333c 38ef 083d d959 173d c7dc 133d
000000b0: a91d 12bc 45e9 7cbd 3ffc 383b 0228 003d
000000c0: 338c 1dbc 4363 e2bc ac5a ebbc 91fd 03bd
000000d0: 1355 5e3c 04d9 d9bc bb4c 0d3d 4319 42bd
000000e0: fc23 213d f152 ccbc 02ff 023c 27ea 0bbd
000000f0: b8cb d23c 7193 433d d0a8 84bd 2363 333d
00000100: 792e 803c e29b 8dbb 2fbc 1a3c b964 22bd
00000110: 8485 73b9 c6c5 023d b62b 88bd 03fb b93c
00000120: e09d 1cbd 8812 18bc 8b31 303d c9c1 74bc
00000130: c743 4e3c 3d64 3d3b e7b0 f9bc 2751 2c3d
00000140: 9c30 1c3c a6c8 58bd 1814 9d3c 8190 8f3c
00000150: 0122 363d 3843 ca3b f075 173c 1ea4 3c3c
00000160: 9750 3f3d 9263 b9bb 5832 8e3c da10 c7bb
00000170: 9760 5bbd 676c 0b3d 3304 033d f4ad b43c
00000180: 0944 59bd 18ed af3b 5137 13bc 0140 8abc
00000190: f701 823b 3bf4 5bbd 030a 653d b88e 25bd
000001a0: c5c4 dabc a1b1 31bd e6f2 d33c f82d 6ebd
000001b0: a4fc 5bbd 289a 4b3d a8b8 1d3d 539d 733d
000001c0: c858 82bc c7eb d5bc 43e7 68bb 3c68 f43b
000001d0: 2fe1 4dbc 4c11 2fbc 4158 c3bc 55eb 043c
000001e0: 97a9 7cbd 3037 d53c 78bb c3bb ad6a 8ebd
000001f0: 17b8 98bc fc8f 5abd 603f 2dbd ea77 cabc
00000200: 479c 5ebc e34a 64bd 3456 673d b0b3 083c
00000210: 6743 f7bc 9d9b 943c f296 8bbd 1502 1cbd
00000220: 8a33 173c 75fc 6b3b e1c6 31bd a246 45bd
00000230: f9af 41bd 8721 78bd 9651 af3c 16b3 283d
00000240: 6d17 c1bb f39d ebbc 8972 1cbd c52f 2fbd
00000250: 9c1a 533d c111 1e3d 34b1 80bd 08d2 b23b
00000260: 58e3 cc3b d079 10bd 0f07 24bd 7592 40bd
00000270: d8f3 323d 8e23 9e3c 4f6b d7bb eb6b 55bd
00000280: a9e3 e5bc a3ab b6bc e2c3 143c 0094 28bd
00000290: 212e 893b fb8a 993c 1ffb 63bd 1e45 70bd
000002a0: d178 05bd 5d9c 41bb 1bc7 a2bc a1f5 c43b
000002b0: b188 35bd b3cb 983c f1c6 5a3d 8845 26bd
000002c0: 81eb ba3c 39c2 42bd 1030 17bd 99be 6cbd
000002d0: e448 f23c 6190 2fbd a023 24bd d86f 283d
000002e0: 08f1 62bd f78b c8bc 4818 193c e06e cebb
000002f0: b488 62bd 9b33 063d 0ba4 2d3d 2356 cabc
00000300: d027 553b 1c53 6a3c 06c2 2cbd bfca 31ba
00000310: d950 fdbc 040f 89ba 7d1d 7ebd 50f2 6cbd
00000320: 70a7 2dbd 2001 4dbd 29d8 71bd 792d ac3c
00000330: 603a 1a3d 38ee 1a3d 9689 0a3d b884 0abd
00000340: 9958 d33c 040d 12bd 1cbb 0ebd e3d7 01bc
00000350: 28bf 5ebc 1556 233d 6b2d 6cbd 12ec 24bc
00000360: 9792 803c 14ce 4fbd 9e28 b03c 9e2c 1f3d
00000370: 6e30 dbbc bd4d 0abd 84b5 9b3b bf83 e23c
00000380: b94c cbbc e2f4 073d 4b9f 433d def3 043d
00000390: e7fb 5cbd 60b3 e63c 9d67 4f3c 962a 02bd
000003a0: 8465 eebc f644 35bc 9a5e e1bc 33fd 98bc
000003b0: 992a 1ebd efe5 00bd db62 873c b772 423d
000003c0: aafb 1ebd ecf8 393d abe4 6cbd a2a8 8cbc
000003d0: 4e5d d0bc 8c68 023c 7f47 db3c d3bf 90bc
000003e0: 059f 7e3a 7355 5cbd 1bb7 78bd 940c 69bc
000003f0: 7984 77bc 58ec d3bc aebe 203d 8a27 e0bc
0.001061356 -0.011114635 -0.013105215 0.033906788 0.01647976 0.04031193 -0.033031493 -0.01939572
-0.0061079846 0.04570352 0.034424517 -0.043995395 0.015993029 0.006519329 -0.004709478 0.0072843013
-0.055250004 0.048265453 -0.04708694 0.020069417 0.03040561 -0.0060079903 -0.031815335 -0.052964397
0.019821318 0.022319738 -0.062285453 0.00964393 -0.035556573 -0.04483271 -0.04258931 0.04395964
-0.017194359 -0.02552821 -0.012981909 0.01404069 0.021399869 0.0053714328 -0.044303242 -0.015220384
0.010930398 0.03343126 0.03695092 0.03609922 -0.008918204 -0.0617459 0.0028226522 0.031288154
-0.009615946 -0.027635222 -0.02872976 -0.03222424 0.013570088 -0.026592739 0.034497004 -0.047387373
0.039340958 -0.024941893 0.007995369 -0.034158852 0.025731906 0.047748033 -0.06477511 0.043795716
0.01564716 -0.004321561 0.0094442805 -0.039646838 -0.00023224024 0.031926893 -0.06648962 0.0227027
-0.0382365 -0.009281762 0.043015998 -0.01493878 0.012589402 0.0028898858 -0.030479861 0.04206958
0.009533074 -0.05292573 0.01917462 0.01752496 0.044466022 0.006172564 0.009244427 0.011513738
0.046707716 -0.0056576217 0.01735799 -0.006075007 -0.053558912 0.034038927 0.031986427 0.022055604
-0.0530434 0.00536884 -0.008985356 -0.016876223 0.0039675194 -0.053699713 0.05591775 -0.04041931
-0.026705155 -0.04338229 0.025872659 -0.058149308 -0.053707734 0.04970756 0.03850618 0.059476208
-0.015911475 -0.026113404 -0.0035538233 0.007458715 -0.012565895 -0.010685276 -0.023845794 0.008112748
-0.06168517 0.026027292 -0.0059732758 -0.069539405 -0.018642468 -0.05335997 -0.042296767 -0.024715383
-0.013587064 -0.05573548 0.056478694 0.008343622 -0.030183507 0.018140608 -0.068159 -0.038087923
0.009228596 0.003600863 -0.043402556 -0.048163064 -0.04728696 -0.06057885 0.021401208 0.041186415
-0.005892685 -0.02876184 -0.038195167 -0.042770166 0.05153905 0.03859115 -0.06283799 0.0054571666
0.0062526874 -0.03527242 -0.040045794 -0.047014672 0.04368958 0.019304063 -0.0065740715 -0.05210487
-0.028062658 -0.02229864 0.009079905 -0.04115677 0.004186407 0.018743029 -0.05565941 -0.058659665
-0.032585923 -0.0029542663 -0.019870332 0.0060107266 -0.044319812 0.018651819 0.05341238 -0.040593654
0.022817375 -0.047548506 -0.03691107 -0.057798956 0.029575773 -0.0428623 -0.040073037 0.041122288
-0.055405647 -0.024480803 0.009344168 -0.0062998384 -0.05530615 0.03276406 0.04239277 -0.024699276
0.003252495 0.014302041 -0.042177223 -0.00067822257 -0.03092234 -0.0010456746 -0.06203984 -0.057848275
-0.04239601 -0.0500499 -0.059044037 0.021017777 0.037653327 0.03782484 0.03382262 -0.033817977
0.025799083 -0.035656944 -0.03484641 -0.007925007 -0.01359538 0.039877016 -0.0576605 -0.010066049
0.0156949 -0.05073364 0.021503743 0.03886091 -0.026756492 -0.033765543 0.004751863 0.027650712
-0.024816858 0.033192523 0.047759335 0.032459132 -0.05395117 0.028161705 0.012658981 -0.031778894
-0.02910114 -0.011063805 -0.02751093 -0.018675422 -0.038614843 -0.03146928 0.01652663 0.04747268
-0.038814224 0.045403406 -0.057835262 -0.017170254 -0.025435116 0.007959496 0.02676749 -0.017669594
0.0009713027 -0.05379243 -0.060721498 -0.01422419 -0.015107268 -0.025869533 0.039244346 -0.027362604

sequential/dense/MatMul_bias f4 [16]
00000000: 095c b6bd ff23 4f3e d245 133d db27 4d3d
00000010: 3f17 ff3c b087 7f3d 8b89 993c 7058 a73c
00000020: f407 253e 6b09 163d b0c5 313e 81a4 183e
00000030: a473 063d 26fe 6e3d 4612 503d bf18 9c3d
-0.08904273 0.20228575 0.035955258 0.050086837 0.031139014 0.06238526 0.018742343 0.020427912
0.16116315 0.036630075 0.17360568 0.14906503 0.032825127 0.058347844 0.050798677 0.076219074

sequential/dense_1/MatMul/ReadVariableOp/transpose f4 [2, 16]
00000000: b3d8 d23e f54b 9c3f 26e8 09bf a54d 59bf
00000010: 42f4 5abf 47d2 75bf 45e0 80bf df7f 1cbf
00000020: 6547 a63f 4580 8cbe e98c 993f 6a1d b63f
00000030: f5d5 41bf 5c56 4bbf e754 74be e523 88bf
00000040: f187 10be e9b6 70bf 0fea 3c3f 81d9 2d3f
00000050: df97 de3e 5431 6f3f 7db9 803e 14ef 463f
00000060: 79be adbf 0b98 743f 516e b0bf 0cd5 b8bf
00000070: 201c 223f 9292 1e3f b232 8b3f 3751 b43e
0.41180953 1.221068 -0.53869855 -0.848841 -0.8552896 -0.9602398 -1.0068442 -0.61132616
1.2990538 -0.27441612 1.1996127 1.4227726 -0.757171 -0.7942865 -0.23860513 -1.0635954
-0.14114358 -0.940291 0.73794645 0.6791001 0.43475243 0.93434644 0.25141516 0.77708554
-1.3573753 0.955445 -1.3783666 -1.4440017 0.63324165 0.619424 1.0874846 0.35218212

sequential/dense_1/MatMul_bias f4 [2]
00000000: 7847 763f 612d 76bf
0.962028 -0.9616299
